lstm_model.pth (torch, 208693 bytes, 10 tensors)

lstm.weight_ih_l0 f4 [256, 3]
0.06137752 0.13853317 0.12204858 0.14692362 0.07829755 0.102504425 0.11826681 0.12433423
0.047621883 -0.029984053 0.015485088 -0.045758627 0.13154298 0.044288754 0.055591915 0.16110098
0.0123534305 0.11318273 -0.33197734 -0.038042657 -0.2327075 -0.08065594 -0.19867772 -0.043779556
-0.14841872 -0.1562719 -0.07906092 -0.056156017 -0.094830446 -0.030980144 0.06606812 -0.06968241
-0.013111049 0.08102436 -0.03176128 0.059353672 -0.09794833 0.0174019 0.015228158 -0.0041226335
0.095796525 0.05861897 0.13567355 -0.08305458 0.12322367 -0.15762141 -0.040146936 -0.108874746
-0.047255937 0.06738844 -0.12532897 -0.2078439 -0.0772427 -0.22543648 0.13218914 0.016138813
-0.056807034 -0.08784325 -0.15459616 -0.15668939 0.060262345 -0.08515792 0.1289973 0.058692954
-0.013102612 0.084674425 -0.14171892 -0.18113528 -0.02081543 -0.01819152 -0.0896153 -0.06293904
-0.093212426 -0.10756871 -0.08597226 0.08755195 0.06577003 0.06660202 -0.036714796 0.0047030263
0.009240105 0.041526265 -0.097116314 -0.12757641 0.14002994 -0.036258325 -0.0596211 0.087385535
0.0027694853 0.060154468 -0.055314064 -0.13051863 -0.018448262 0.019994121 0.112643965 0.09995259
-0.08477822 0.096468545 0.064695716 0.13548292 -0.040972676 -0.052805793 -0.0031166608 0.10106774
0.020561984 0.019187126 -0.085290976 0.09552997 -0.07575415 0.04708737 0.023274327 -0.01932349
0.07658044 0.061191082 -0.073171735 0.10090542 0.09026362 0.11024489 0.0642532 0.035844594
-0.07148711 0.06958145 0.16242228 0.06267813 0.079762414 0.15317693 -0.019472355 0.15623863
0.104506075 -0.26325524 -0.13774267 -0.21665159 0.13760003 0.09312303 0.06473447 0.05841583
-0.00850929 0.031197298 0.11984922 0.004631263 0.009770545 -0.04950164 -0.026265519 0.018061657
-0.029799035 0.12270843 0.13385186 -0.22510287 -0.1608671 -0.21269405 0.08872439 0.012944223
-0.05755584 0.038262475 -0.062383246 -0.0053537865 0.07699591 0.015866742 0.104120836 -0.055470902
0.016156174 -0.0070960573 0.049110457 0.07665188 -0.11958779 -0.00039433496 -0.069146305 -0.05349787
-0.030116785 -0.17891505 -0.17322156 -0.28961402 -0.094211765 -0.25945568 0.14324571 0.035947993
-0.06384134 -0.005118171 0.007777435 0.15204777 0.070709854 -0.009627392 -0.11264115 0.16311713
0.14055663 0.016812216 -0.05456435 -0.06998323 -0.042591613 -0.26406384 -0.16050047 -0.10424251
0.017839272 -0.056554478 0.02705557 0.123890534 0.06600801 0.00041242893 0.026770683 -0.069102086
0.012337849 0.093945295 0.021304639 0.022122778 -0.04701703 0.16291015 0.16269733 0.02959577
0.13002868 0.16318533 -0.42405227 -0.08746703 -0.40481693 -0.09895492 -0.15587658 -0.123297155
-0.026210101 -0.22224765 -0.01885704 -0.097433805 0.071337216 0.0685251 0.12189625 0.09339111
0.073907346 -0.034590885 0.0759873 -0.074711226 0.05291514 0.07433845 0.056609366 0.17208081
0.03351644 0.084456146 0.006007614 0.08985006 0.048874572 -0.24610846 -0.18553354 -0.09686444
-0.11383631 -0.10686643 0.040109195 -0.18692191 0.062068567 -0.15754299 0.16835186 0.120226465
0.14976087 -0.03327796 -0.08539979 -0.12984692 0.11850706 0.059337452 -0.04595627 -0.14676414
00000000: ff66 7b3d a4db 0d3e 9bf4 f93d 2573 163e
00000010: 775a a03d d7ed d13d df35 f23d f2a2 fe3d
00000020: 2a0f 433d 1ea1 f5bc 2bb5 7d3c 666d 3bbd
00000030: 34b3 063e 2068 353d 59b4 633d a8f7 243e
00000040: 0b66 4a3c 59cc e73d eff8 a9be 9ed2 1bbd
00000050: e04a 6ebe f12e a5bd 2c72 4bbe 3152 33bd
00000060: 14fb 17be be05 20be b1ea a1bd da03 66bd
00000070: 7736 c2bd 12ca fdbc b94e 873d a7b5 8ebd
00000080: bacf 56bc 1af0 a53d 1e18 02bd d61c 733d
00000090: 2299 c8bd 6e8e 8e3c 867f 793c 2817 87bb
000000a0: f830 c43d 721a 703d 02ee 0a3e 8518 aabd
000000b0: b15c fc3d 8267 21be 1d71 24bd b9f9 debd
000000c0: 718f 41bd f302 8a3d 3d56 00be 08d5 54be
000000d0: 6c31 9ebd d2d8 66be 975c 073e 8b35 843c
000000e0: 7eae 68bd 29e7 b3bd 754e 1ebe 2f73 20be
000000f0: a6d5 763d 4767 aebd de17 043e 0668 703d
00000100: 57ac 56bc c969 ad3d c41e 11be 877b 39be
00000110: 1f85 aabc 6206 95bc 3a88 b7bd 2fe6 80bd
00000120: 28e6 bebd fc4c dcbd 3912 b0bd 704e b33d
00000130: 70b2 863d a466 883d 4162 16bd d81b 9a3b
00000140: cf63 173c 7217 2a3d ebe4 c6bd 64a3 02be
00000150: 0264 0f3e 9c83 14bd 4135 74bd 30f7 b23d
00000160: 4180 353b 8864 763d 0091 62bd ada6 05be
00000170: cf20 97bc b6ca a33c e1b1 e63d f2b3 cc3d
00000180: 34a0 adbd 4d91 c53d 307f 843d 09bc 0a3e
00000190: f7d2 27bd e34a 58bd e440 4cbb 9afc ce3d
000001a0: 9b71 a83c 522e 9d3c 09ad aebd 38a5 c33d
000001b0: fe24 9bbd b0de 403d cda9 be3c 4c4c 9ebc
000001c0: 35d6 9c3d 80a3 7a3d 10db 95bd 80a7 ce3d
000001d0: 22dc b83d 13c8 e13d 2f97 833d c8d1 123d
000001e0: d567 92bd b880 8e3d 0752 263e 645d 803d
000001f0: 7a5a a33d 6ada 1c3e 7d84 9fbc 05fd 1f3e
00000200: 4807 d63d 64c9 86be 6a0c 0dbe ead9 5dbe
00000210: 06e7 0c3e 4ab7 be3d 8193 843d 7045 6f3d
00000220: 8d6a 0bbc 7a91 ff3c 8273 f53d dac1 973b
00000230: a314 203c 3bc2 4abd c92a d7bc 0af6 933c
00000240: 1b1d f4bc 8f4e fb3d 7610 093e 5e81 66be
00000250: 58ba 24be 78cc 59be 22b5 b53d 0214 543c
00000260: acbf 6bbd 1db9 1c3d 9385 7fbd d16e afbb
00000270: 08b0 9d3d f8fa 813c 4e3d d53d 7535 63bd
00000280: f459 843c 0b86 e8bb 0c28 493d a9fb 9c3d
00000290: 71ea f4bd bebe ceb9 949c 8dbd 9520 5bbd
000002a0: 7ab7 f6bc 8235 37be fe60 31be 4a48 94be
000002b0: 19f2 c0bd 60d7 84be 01af 123e 343e 133d
000002c0: 40bf 82bd 55b6 a7bb dad9 fe3b 69b2 1b3e
000002d0: 54d0 903d 35bc 1dbc 67b0 e6bd 2d08 273e
000002e0: 14ee 0f3e c6b9 893c de7e 5fbd 5e53 8fbd
000002f0: 8b74 2ebd 6033 87be 3c5a 24be 197d d5bd
00000300: aa23 923c aba5 67bd a5a3 dd3c 52ba fd3d
00000310: 352f 873d 463b d839 314e db3c 6585 8dbd
00000320: b024 4a3c 6466 c03d 1187 ae3c d43a b53c
00000330: ee94 40bd ebd1 263e 219a 263e d472 f23c
00000340: 3d26 053e 0e1a 273e 611d d9be ea21 b3bd
00000350: 2a44 cfbe e1a8 cabd 1c9e 1fbe 3883 fcbd
00000360: 91b6 d6bc e394 63be 147a 9abc 608b c7bd
00000370: 3f19 923d e356 8c3d bea4 f93d d743 bf3d
00000380: bc5c 973d 2caf 0dbd 3b9f 9b3d 3302 99bd
00000390: 8cbd 583d c23e 983d 39df 673d f435 303e
000003a0: 8948 093d 58f7 ac3d 85db c43b 4f03 b83d
000003b0: b430 483d db03 7cbe 81fc 3dbe dd60 c6bd
000003c0: 0323 e9bd c9dc dabd 8a49 243d 7568 3fbe
000003d0: 9c3b 7e3d f352 21be 6e64 2c3e 4b39 f63d
000003e0: ea5a 193e 784e 08bd 16e6 aebd 97f6 04be
000003f0: d4b3 f23d d40b 733d a43c 3cbd 5749 16be

lstm.weight_hh_l0 f4 [256, 64]
0.08300646 -0.0879679 -0.06718549 -0.015803395 -0.09922308 -0.10748247 0.08979033 -0.053979296
0.043447226 0.04759597 0.110796124 0.040584303 0.06529799 0.05773348 -0.07938215 -0.10849401
0.03888966 0.010048091 -0.033940837 0.047283795 0.022163382 0.08508372 0.074815914 -0.035918653
0.07113232 0.032151263 -0.12370156 0.00012406633 -0.044963963 -0.031812724 -0.043454062 -0.10941478
-0.0483858 -0.05067272 0.018387845 -0.095161036 0.09709298 -0.03553062 0.042646512 -0.08112093
-0.060413983 0.05652637 0.09181938 -0.08985639 -0.0731985 -0.085658595 0.09431874 0.040179644
-0.041714244 0.095714584 -0.014697404 -0.00248097 0.090870194 -0.046673037 0.043003153 0.09671946
-0.0036817444 -0.03608904 -0.1112496 0.09493413 0.12817691 -0.08957073 0.013204614 0.029143168
0.0989585 0.042763717 -0.08700423 0.052443728 -0.0991543 0.064655386 -0.21776953 -0.05554753
-0.054297585 0.02484829 -0.04547457 0.00020154427 -0.004402745 0.04486525 0.060549226 0.005099775
0.10133059 0.05845189 -0.06925722 0.024157342 -0.1211268 -0.08046109 0.07839051 -0.06283229
0.064107664 0.061371025 -0.06579826 -0.11225952 -0.1178453 0.053429477 -0.064154014 -0.08358146
-0.07960107 0.11794198 -0.11285532 0.108506754 0.1063404 -0.012951968 0.05091352 0.061311778
0.1035431 0.06894246 -0.10747759 0.04571345 -0.13146994 -0.0667775 0.10986131 0.1027765
-0.07694981 0.16609435 0.08047195 0.087551355 0.007750672 -0.029357426 0.003880538 0.042965755
-0.109338306 0.20574121 -0.019241286 0.008266916 0.059252664 -0.079720415 -0.07024038 -0.012986392
0.0110190995 0.08613156 0.040582478 -0.1342025 0.044452395 0.045547128 -0.07852796 -0.018181466
0.066160254 -0.098566785 -0.009099763 0.05493764 -0.097587705 -0.046837308 0.09167775 -0.058058094
0.07311811 0.10360357 -0.058619596 -0.118148595 -0.07497507 -0.06690672 0.1018614 0.017185807
-0.045175985 0.043374576 0.09648879 0.08133838 0.07502698 0.0059130234 0.0022483459 0.033915788
0.051198322 0.09359878 -0.0058532823 0.008531512 -0.090436 0.041121185 -0.011755966 0.10295184
0.012725197 0.03164481 0.06232497 -0.043349944 -0.11401485 0.04053841 -0.058239777 0.10982998
0.08012294 0.053372085 0.11586341 -0.018000562 0.007966571 0.00277306 0.08268402 0.024520295
0.06479745 -0.0067778667 0.08486985 -0.040191084 0.04928063 0.090237014 0.059524413 0.029232932
-0.055793583 0.0194931 0.05119124 0.034911215 0.04153854 -0.059237134 -0.08728273 0.058016986
0.018293487 0.10079348 -0.037216548 -0.09334201 0.06560633 -0.06128666 0.075927 0.029927492
0.077013224 0.041991323 -0.03375255 0.07542471 0.09015802 0.118071035 0.07793904 -0.0062954
0.06637113 -0.045604892 -0.010630921 -0.09521485 0.029538598 -0.06701387 -0.08388847 -0.09535585
0.098312266 0.0072034183 -0.084208615 -0.011729907 -0.04237017 0.09048127 -0.06773484 -0.052031863
0.07540789 0.04246645 -0.112055145 -0.0394707 -0.0043685054 0.011016909 -0.041136246 -0.043016467
-0.039523643 -0.038588278 -0.07405755 -0.10590613 0.015042321 -0.06652052 -0.03195505 0.03576062
-0.09807567 0.0502737 0.0017128196 0.061620023 0.1098254 -0.079930045 0.119235605 -0.04543945
00000000: 4aff a93d 8428 b4bd 8c98 89bd 1f76 81bc
00000010: 7835 cbbd c51f dcbd fee3 b73d 6519 5dbd
00000020: b8f5 313d fef3 423d 14e9 e23d ba3b 263d
00000030: f4ba 853d f179 6c3d 1c93 a2bd 1c32 debd
00000040: c44a 1f3d c0a0 243c 8c05 0bbd a7ac 413d
00000050: fb8f b53c 6040 ae3d 1639 993d 701f 13bd
00000060: d2ad 913d 0bb1 033d 3e57 fdbd cd17 0239
00000070: 222c 38bd 0f4e 02bd e3fc 31bd db14 e0bd
00000080: 3030 46bd 338e 4fbd 1ba2 963c cae3 c2bd
00000090: afd8 c63d 8e88 11bd 1cae 2e3d bb22 a6bd
000000a0: a774 77bd 3288 673d cd0b bc3d a106 b8bd
000000b0: 18e9 95bd c66d afbd 2f2a c13d 6993 243d
000000c0: 8edc 2abd 0206 c43d 61cd 70bc c597 22bb
000000d0: 271a ba3d 3a2c 3fbd 1324 303d da14 c63d
000000e0: 6c49 71bb 1ad2 13bd d5d6 e3bd d36c c23d
000000f0: cf40 033e dc70 b7bd 2a58 583c a7bd ee3c
00000100: c1aa ca3d 0229 2f3d 462f b2bd 3ccf 563d
00000110: 6911 cbbd 0b6a 843d fafe 5ebe cf85 63bd
00000120: 2567 5ebd a48e cb3c 8b43 3abd a155 5339
00000130: e744 90bb a0c4 373d 7702 783d 031c a73b
00000140: 6a86 cf3d 406b 6f3d bbd6 8dbd 9ee5 c53c
00000150: 5411 f8bd c9c8 a4bd 348b a03d 37ae 80bd
00000160: e14a 833d 2f60 7b3d 3dc1 86bd 52e8 e5bd
00000170: e058 f1bd ded8 5a3d 2e63 83bd c22c abbd
00000180: e305 a3bd 918b f13d b120 e7bd ca38 de3d
00000190: ffc8 d93d 7e34 54bc b28a 503d 0f22 7b3d
000001a0: 680e d43d b431 8d3d 361d dcbd 073e 3b3d
000001b0: 0ea0 06be a4c2 88bd f7fe e03d 7c7c d23d
000001c0: dd97 9dbd a314 2a3e 7ace a43d 204e b33d
000001d0: 59f9 fd3b fc7e f0bc a050 7e3b dcfc 2f3d
000001e0: c3ec dfbd d3ad 523e e79f 9dbc f571 073c
000001f0: ecb2 723d 7544 a3bd 30da 8fbd e0c4 54bc
00000200: 7489 343c be65 b03d d039 263d 616c 09be
00000210: b713 363d a08f 3a3d 44d3 a0bd 4cf1 94bc
00000220: 077f 873d 62dd c9bd 2c17 15bc 4a06 613d
00000230: 10dc c7bd 7ad8 3fbd 8bc1 bb3d 53ce 6dbd
00000240: f3be 953d 1c2e d43d 1a1b 70bd e4f7 f1bd
00000250: 888c 99bd 6406 89bd b69c d03d 40c9 8c3c
00000260: 740a 39bd 8aa9 313d ea9b c53d bd94 a63d
00000270: bfa7 993d 09c2 c13b fc58 133b 48eb 0a3d
00000280: 55b5 513d b8b0 bf3d e4cc bfbb c1c7 0b3c
00000290: 8236 b9bd b06e 283d 189c 40bc 6ad8 d23d
000002a0: 587d 503c fd9d 013d 7848 7f3d b68f 31bd
000002b0: 9e80 e9bd 9b0b 263d d58c 6ebd 8aee e03d
000002c0: 7f17 a43d b09c 5a3d cc49 ed3d ea75 93bc
000002d0: 3886 023c 3abc 353b 3d56 a93d c9de c83c
000002e0: 87b4 843d de18 debb 3ed0 ad3d 689f 24bd
000002f0: 7cda 493d 2fce b83d dfcf 733d e779 ef3c
00000300: d087 64bd feaf 9f3c e8ad 513d 10ff 0e3d
00000310: 5124 2a3d a3a2 72bd 4ac1 b2bd 38a3 6d3d
00000320: 39dc 953c d06c ce3d 6170 18bd 192a bfbd
00000330: 9d5c 863d b907 7bbd 9d7f 9b3d 802a f53c
00000340: 1cb9 9d3d 18ff 2b3d 1d40 0abd 4578 9a3d
00000350: c5a4 b83d 3acf f13d 819e 9f3d a549 cebb
00000360: 96ed 873d 32cc 3abd 512d 2ebc 0100 c3bd
00000370: eefa f13c 913e 89bd b8cd abbd ee49 c3bd
00000380: f157 c93d a70a ec3b 9175 acbd cc2e 40bc
00000390: 588c 2dbd 3e4e b93d 90b8 8abd 5d1f 55bd
000003a0: 746f 9a3d 4df1 2d3d 2b7d e5bd 07ac 21bd
000003b0: ae25 8fbb 4480 343c 7b7e 28bd 0932 30bd
000003c0: 8be3 21bd be0e 1ebd 7cab 97bd 50e5 d8bd
000003d0: 1174 763c e93b 88bd 4ce3 02bd ba79 123d
000003e0: e6db c8bd cceb 4d3d b080 e03a 4765 7c3d
000003f0: 24ec e03d 5db2 a3bd cc31 f43d b71e 3abd

lstm.bias_ih_l0 f4 [256]
-0.08701273 -0.07875697 0.11147077 -0.10209842 -0.11502372 -0.0052877506 0.06884443 -0.09345146
0.06232027 0.073635735 -0.037533537 -0.06361003 0.0031194186 0.093428075 -0.13998699 0.11377419
0.13517669 0.0012848305 -0.107238315 -0.038554054 -0.088421546 -0.040565923 -0.083005965 -0.01848791
0.08565327 0.07394415 -0.004172773 0.050002493 -0.1308739 0.0703777 -0.00491908 0.10342724
0.09018907 -0.05535883 -0.010192141 -0.07841831 0.10062388 0.098814525 -0.0034303088 -0.058083244
0.06046595 0.003041573 -0.061489128 0.02385132 -0.05538291 0.055384826 -0.048494454 0.10063398
-0.17034653 -0.0028839007 0.011119955 -0.049295507 0.07613465 -0.10418856 -0.059040565 -0.095938995
0.044980116 -0.025384016 0.116359614 -0.10913867 -0.015040258 0.003407431 0.010503385 -0.012937227
-0.11388653 0.10221596 -0.07894816 -0.09754477 0.071661144 0.08225205 -0.0674985 0.03902767
-0.10180464 -0.034107972 0.046877623 0.11345146 0.06940302 -0.08015349 0.04369611 -0.09535808
-0.030985191 0.12141088 0.13946566 -0.14982322 0.042094767 0.0650123 -0.07865737 0.11884139
-0.017168138 -0.01064848 0.10233793 0.09785969 0.086556874 0.007874989 0.07364793 0.01910924
-0.10505107 0.021053106 0.023472838 0.08383888 -0.044979945 0.06891716 0.040544953 0.08556089
-0.11024669 0.10589753 0.096520334 0.024864376 0.07626728 0.02972024 -0.07013296 -0.0551433
0.070538744 -0.10579414 -0.069964245 0.055382293 0.053226445 -0.04318804 0.029987019 0.02273259
0.13522787 -0.037822828 -0.020428672 -0.0030105605 -0.08941934 0.0064796177 -0.027379306 -0.018122345
-0.06449004 0.057650156 0.036335696 0.110516176 0.014860431 -0.068680465 -0.029005527 0.04366623
-0.019834412 0.009149829 -0.019048255 0.050168987 -0.015259432 0.07324101 -0.060794078 -0.01770808
-0.020257125 -0.039995838 0.0022754683 -0.002297102 -0.099662945 0.11298347 0.101865895 -0.04776501
0.013378066 0.04262763 0.07278888 -0.11132544 -0.06480051 0.032733288 -0.006301193 -0.09887994
-0.045647535 -0.11303848 0.12022411 -0.06576558 -0.035860866 -0.02349334 -0.059430264 0.07373751
0.09813834 0.12635317 0.027324973 0.022618923 0.0850458 0.123772405 0.037797056 -0.070186734
0.055354793 0.051602256 0.0052932524 -0.041781273 0.14060593 -0.044712916 0.09559708 -0.10511478
0.01574402 0.043300584 0.011824062 0.039834604 0.063060686 -0.05458735 0.03746691 0.048624504
-0.11357941 -0.09288059 -0.01319056 0.11024263 0.032793865 0.038165916 0.1126201 -0.117982686
0.12327624 0.015183183 0.076268725 0.04008417 -0.037422117 -0.001925768 -0.037275895 0.09960852
-0.00084395113 0.10894767 0.08388978 0.05480973 -0.059362944 -0.08469508 0.08425785 0.06686561
-0.01674734 0.0172037 0.01969889 0.039651487 -0.08479376 0.08744773 0.031348605 -0.084349446
-0.08821066 -0.008789302 0.013394038 -0.1144187 -0.031166911 -0.008673427 -0.04736865 -0.04177372
-0.03491367 0.034242973 0.054798048 -0.13221043 -0.062902324 0.002664051 0.0744071 -0.026707117
-0.020110255 0.0325049 -0.102246195 -0.08437216 -0.023400197 -0.04897121 0.07807916 -0.035007376
0.10842627 -0.07534719 0.12337878 0.08454711 -0.055894602 0.07331963 0.017469991 0.035765678
00000000: bb33 b2bd 564b a1bd c94a e43d fa18 d1bd
00000010: 8e91 ebbd de44 adbb 4ffe 8c3d 7b63 bfbd
00000020: 8a43 7f3d 55ce 963d c4bc 19bd fa45 82bd
00000030: 296f 4c3b 3857 bf3d c058 0fbe 7102 e93d
00000040: c26b 0a3e c267 a83a c39f dbbd dbea 1dbd
00000050: 5b16 b5bd 7428 26bd 08ff a9bd f573 97bc
00000060: fb6a af3d 0870 973d c2bb 88bb 6acf 4c3d
00000070: cf03 06be 2f22 903d 3c30 a1bb a9d1 d33d
00000080: 0cb5 b83d f1bf 62bd f0fc 26bc c799 a0bd
00000090: e513 ce3d 455f ca3d 08cf 60bb b2e8 6dbd
000000a0: 25ab 773d 2155 473b 06dc 7bbd d863 c33c
000000b0: 31d9 62bd 33db 623d 1fa2 46bd 3019 ce3d
000000c0: 526f 2ebe d3ff 3cbb 7930 363c 16ea 49bd
000000d0: 7cec 9b3d d060 d5bd 85d4 71bd aa7b c4bd
000000e0: 123d 383d 24f2 cfbc f34d ee3d 1884 dfbd
000000f0: 6a6b 76bc 354f 5f3b 6416 2c3c aaf6 53bc
00000100: 573d e9bd 9a56 d13d 93af a1bd 8dc5 c7bd
00000110: 14c3 923d c373 a83d a73c 8abd 7adb 1f3d
00000120: f37e d0bd cdb4 0bbd c002 403d 3d59 e83d
00000130: 2c23 8e3d 8327 a4bd b1fa 323d 194b c3bd
00000140: a8d4 fdbc 44a6 f83d 16d0 0e3e 426b 19be
00000150: 906b 2c3d 2b25 853d 1d17 a1bd 1d63 f33d
00000160: 32a4 8cbc f676 2ebc 8c96 d13d a96a c83d
00000170: bb44 b13d 1906 013c bad4 963d fb8a 9c3c
00000180: 0425 d7bd 9077 ac3c 1c4a c03c b8b3 ab3d
00000190: e43c 38bd 7124 8d3d 7712 263d 8c3a af3d
000001a0: 04c9 e1bd cee0 d83d 74ac c53d 60b0 cb3c
000001b0: 0532 9c3d dc77 f33c dfa1 8fbd f1dd 61bd
000001c0: 9e76 903d 99aa d8bd 6a49 8fbd 8bd8 623d
000001d0: f903 5a3d f1e5 30bd 56a7 f53c b239 ba3c
000001e0: 2d79 0a3e 1cec 1abd 085a a7bc d34c 45bb
000001f0: 7d21 b7bd f952 d43b 914a e0bc 5075 94bc
00000200: 5b13 84bd 9222 6c3d bdd4 143d 4e56 e23d
00000210: 2a79 733c 58a8 8cbd 009d edbc 5cdb 323d
00000220: c77b a2bc 2ae9 153c 160b 9cbc ff7d 4d3d
00000230: b202 7abc 62ff 953d 3603 79bd 8910 91bc
00000240: 45f2 a5bc add2 23bd 0620 153b fa8a 16bb
00000250: 161c ccbd e163 e73d 119f d03d 3ea5 43bd
00000260: ad2f 5b3c 4f9a 2e3d 5612 953d 98fe e3bd
00000270: 21b6 84bd 5713 063d 3d7a cebb 9181 cabd
00000280: e9f8 3abd b880 e7bd 0f38 f63d 1bb0 86bd
00000290: d8e2 12bd 1b75 c0bc 266d 73bd b103 973d
000002a0: c1fc c83d ba62 013e 9fd8 df3c 524b b93c
000002b0: 7e2c ae3d 637c fd3d 16d1 1a3d 10be 8fbd
000002c0: b5bb 623d e35c 533d 0573 ad3b d722 2bbd
000002d0: 00fb 0f3e e424 37bd 67c8 c33d 6b46 d7bd
000002e0: 9af9 803c f45b 313d b6b9 413c 9c29 233d
000002f0: f625 813d fc96 5fbd e776 193d 7d2a 473d
00000300: 529c e8bd 2e38 bebd 381d 58bc e3c6 e13d
00000310: dc52 063d dd53 1c3d 5ea5 e63d e8a0 f1bd
00000320: 4178 fc3d e3c2 783c c732 9c3d 4c2f 243d
00000330: ef47 19bd 0d6a fcba 9cae 18bd 8dff cb3d
00000340: 9a3c 5dba f51f df3d 68ce ab3d 2b80 603d
00000350: 8f26 73bd 9d74 adbd 618f ac3d d6f0 883d
00000360: b831 89bc c6ee 8c3c 915f a13c 9969 223d
00000370: 5aa8 adbd cc17 b33d 6567 003d 67bf acbd
00000380: caa7 b4bd 0101 10bc ab72 5b3c 5a54 eabd
00000390: c051 ffbc fd1a 0ebc a105 42bd ec1a 2bbd
000003a0: a301 0fbd 5c42 0c3d eb73 603d 2c62 07be
000003b0: efd2 80bd 5c97 2e3b c062 983d e2c8 dabc
000003c0: 43be a4bc dc23 053d 7466 d1bd 50cb acbd
000003d0: c5b1 bfbc 0996 48bd f7e7 9f3d e563 0fbd
000003e0: 980e de3d a14f 9abd 04ae fc3d 0927 ad3d
000003f0: bdf1 64bd 9a28 963d 3a1d 8f3c 087f 123d

lstm.bias_hh_l0 f4 [256]
-0.081987984 -0.025014164 -0.13703573 0.10662179 0.11296195 0.102885045 -0.043862972 -0.11380326
0.08992527 -0.14260063 0.08982025 -0.0067356857 -0.050415646 0.12890878 0.03078519 -0.12962788
0.094457954 -0.06339496 0.07520532 -0.1593656 0.13753125 -0.12020663 -0.02788659 0.0911436
-0.017953916 -0.0047133705 -0.023869656 0.053921856 -0.016194593 0.067997314 -0.05790281 0.0862037
0.011131555 -0.043828037 0.081038944 -0.07040254 -0.056193415 0.06463381 -0.029359873 -0.08526485
-0.017774934 0.011455659 0.01671908 -0.08110261 0.092778064 0.10896445 -0.14769219 -0.0060612615
-0.06449229 -0.10678757 -0.061862167 -0.064375065 -0.015257176 -0.06048402 0.06435823 -0.13714239
-0.11332903 0.013054628 0.086189725 0.018908564 0.010943098 -0.0016318628 0.053809326 0.009308642
-0.10933318 0.14540063 -0.058781806 0.1219377 0.017725438 -0.046929013 0.09450931 -0.01818058
0.010935213 0.003267164 -0.108495235 0.10526169 -0.021163076 0.04854641 0.0040943185 0.0981201
0.026210394 0.043188956 -0.0073551848 -0.121095516 0.020466575 -0.052323364 0.037086476 0.09343122
-0.05578674 -0.075816825 0.123498835 -0.12191828 -0.08457687 -0.11142954 -0.040573094 -0.015911786
-0.057209063 0.010311725 0.12693578 -0.13660306 0.039496712 0.018495446 0.14979836 0.035634782
-0.036434747 -0.016037386 0.0804033 -0.103103 0.0061345627 -0.10729881 0.071272165 0.026630312
0.037275106 -0.039305262 0.10642921 -0.15847567 -0.08616927 0.009072172 -0.07578817 -0.06252125
-0.09011733 0.03502602 -0.03485393 -0.1024854 0.079299055 0.13264748 -0.024051914 -0.12761943
0.028861905 -0.04556112 -0.010031772 0.089930356 0.08547195 0.0787584 -0.08044708 0.053907193
-0.097653486 -0.04565263 -0.03544474 -0.06504951 0.0063423533 0.04525018 0.053091045 0.047078513
0.023077386 0.059330475 -0.03054583 0.06469518 -0.025294272 -0.053489238 0.10441876 0.046561353
-0.067538604 -0.07030054 -0.15516865 0.016387038 0.07595991 0.0054978724 -0.043966465 0.05090146
0.053516764 0.06326002 0.086389 0.007207784 -0.0742836 0.033912543 0.08108019 -0.02933207
-0.038496587 -0.049548205 -0.025268985 -0.09910849 -0.045787897 0.022309327 -0.0040167198 0.1341923
0.06349531 0.10014724 -0.014160663 -0.05961925 -0.0514138 0.10214296 -0.02531453 0.07848131
-0.037323102 0.042204686 0.012091592 -0.048249993 0.045774356 0.07706888 -0.04769695 -0.13101378
0.05385473 0.052758824 -0.07927907 0.04461717 0.124838725 0.008313014 0.095014945 -0.02688353
0.08498151 -0.11091236 -0.02808774 0.031812433 0.050101344 0.13141836 0.017088447 -0.08758467
0.049038943 -0.08786193 -0.031647105 -0.0073934267 -0.028344642 -0.11202329 -0.08984054 0.033433024
0.052124172 0.08762558 0.10297551 -0.101340935 0.028927987 0.018795732 -0.07161492 -0.011924899
-0.09721577 0.003815624 0.02387102 -0.049852893 -0.062122732 -0.1347213 0.0020072132 -0.06410476
-0.112325996 0.030845216 0.025438854 0.012878328 -0.02205762 -0.0812615 -0.14375235 -0.12121246
-0.14021598 -0.07969437 -0.018155748 -0.1370778 0.040451355 0.073456004 -0.08871486 -0.011085074
0.12451173 0.07687526 -0.031339243 -0.054414608 -0.010729433 -0.035321523 0.0069334884 0.05017042
00000000: 51e9 a7bd 81ea ccbc 1853 0cbe 865c da3d
00000010: 9858 e73d 65b5 d23d a9a9 33bd af11 e9bd
00000020: bd2a b83d e605 12be aef3 b73d 07b7 dcbb
00000030: a380 4ebd aa00 043e 3931 fc3c 2cbd 04be
00000040: 2c73 c13d 37d5 81bd 3f05 9a3d bc30 23be
00000050: fed4 0c3e e52e f6bd 6b72 e4bc 7fa9 ba3d
00000060: 1714 93bc 9e72 9abb 4c8a c3bc 2add 5c3d
00000070: 86aa 84bc 2d42 8b3d 7f2b 6dbd 918b b03d
00000080: 2061 363c 0785 33bd bff7 a53d 352f 90bd
00000090: 112b 66bd bb5e 843d 1e84 f0bc 569f aebd
000000a0: bd9c 91bc 84b0 3b3c 74f6 883c 2019 a6bd
000000b0: 6d02 be3d c128 df3d 9f3c 17be 8c9d c6bb
000000c0: 8914 84bd 71b3 dabd 2f63 7dbd 13d7 83bd
000000d0: 3cf9 79bc 17be 77bd 3fce 833d 0e6f 0cbe
000000e0: 0d19 e8bd 14e3 553c 3d84 b03d 22e6 9a3c
000000f0: ae4a 333c 3be4 d5ba 2b67 5c3d 4683 183c
00000100: 13ea dfbd e7e3 143e 31c5 70bd 79ba f93d
00000110: f034 913c a338 40bd 198e c13d 71ef 94bc
00000120: 9c29 333c eb1d 563b c032 debd 7193 d73d
00000130: 305e adbc 9ad8 463d a229 863b 31f3 c83d
00000140: 2eb7 d63c e7e6 303d c303 f1bb ed00 f8bd
00000150: 85a9 a73c 0651 56bd fde7 173d de58 bf3d
00000160: a380 64bd da45 9bbd f5ec fc3d 4bb0 f9bd
00000170: a336 adbd 2c35 e4bd f92f 26bd 6f59 82bc
00000180: 0d54 6abd 82f2 283c 74fb 013e ace1 0bbe
00000190: 4ec7 213d c383 973c be64 193e c7f5 113d
000001a0: 9a3c 15bd d660 83bc 7caa a43d aa27 d3bd
000001b0: 7104 c93b 7abf dbbd 24f7 913d d027 da3c
000001c0: c8ad 183d 8efe 20bd 8ff7 d93d 7247 22be
000001d0: 8479 b0bd 73a3 143c d436 9bbd 240b 80bd
000001e0: 6f8f b8bd 7277 0f3d ffc2 0ebd dee3 d1bd
000001f0: 8b67 a23d bed4 073e 8508 c5bc abae 02be
00000200: cd6f ec3c 4c9e 3abd 4d5c 24bc 682d b83d
00000210: eb0b af3d 164c a13d 70c1 a4bd cacd 5c3d
00000220: 8dfe c7bd 41fe 3abd 812e 11bd ad38 85bd
00000230: 84d3 cf3b 4158 393d ff75 593d 66d5 403d
00000240: c90c bd3c 8304 733d 403b fabc e87e 843d
00000250: ef35 cfbc 8817 5bbd 81d9 d53d 1eb7 3e3d
00000260: ae51 8abd bbf9 8fbd 88e4 1ebe 1c3e 863c
00000270: df90 9b3d 7f27 b43b 2e16 34bd 0d7e 503d
00000280: 6534 5b3d 788e 813d b7ec b03d 462f ec3b
00000290: 0022 98bd e1e7 0a3d 5f0d a63d cf49 f0bc
000002a0: 99ae 1dbd 0ff3 4abd e700 cfbc 64f9 cabd
000002b0: 178c 3bbd 0dc2 b63c b09e 83bb b569 093e
000002c0: d409 823d ff19 cd3d 2002 68bc 5133 74bd
000002d0: 4797 52bd 5430 d13d 6b60 cfbc cfba a03d
000002e0: 1ce0 18bd d2de 2c3d d01b 463c c9a1 45bd
000002f0: e47d 3b3d 4ad6 9d3d e15d 43bd 7a28 06be
00000300: c796 5c3d a319 583d 115d a2bd 7ec0 363d
00000310: 72ab ff3d 4f33 083c 3297 c23d d93a dcbc
00000320: c90a ae3d 0526 e3bd 4318 e6bc c14d 023d
00000330: 1137 4d3d 8992 063e 12fd 8b3c 975f b3bd
00000340: 0fdd 483d f5f0 b3bd 65a0 01bd 8f44 f2bb
00000350: 0633 e8bc 776c e5bd 51fe b7bd 11f1 083d
00000360: 2880 553d 0a75 b33d d3e4 d23d d68b cfbd
00000370: 63fa ec3c 82f9 993c d8aa 92bd a760 43bc
00000380: 1019 c7bd 8c0f 7a3b 288d c33c 8c32 4cbd
00000390: 6874 7ebd 61f4 09be 738b 033b 5b49 83bd
000003a0: 2c0b e6bd 1baf fc3c 2565 d03c 9fff 523c
000003b0: 2fb2 b4bc 6e6c a6bd d133 13be 3d3e f8bd
000003c0: c794 0fbe cd36 a3bd 5dbb 94bc 1f5e 0cbe
000003d0: 52b0 253d 1a70 963d 23b0 b5bd 2c9e 35bc
000003e0: 0200 ff3d c770 9d3d 945d 00bd dae1 5ebd
000003f0: 81ca 2fbc 4dad 10bd 5132 e33b 807f 4d3d

lstm.weight_ih_l1 f4 [256, 64]
-0.07412971 -0.021574851 0.12992561 0.100515455 -0.030834308 -0.09807524 0.014576986 -0.027537638
-0.07904983 0.05750385 0.005388971 -0.044124566 -0.034368604 -0.13156621 0.049826372 -0.13522574
-0.08002917 -0.18207374 0.080074444 0.009514128 -0.11240943 -0.09569257 0.042858325 0.11925107
0.0007782568 -0.07892597 -0.024327133 -0.07739545 -0.05794001 -0.14062066 0.100632675 -0.03883557
0.026338559 0.088198714 -0.07618433 0.057373922 0.02892466 -0.08113124 -0.09211713 -0.033047825
-0.11843055 0.07483568 -0.043377478 0.097810104 0.01755434 -0.10473854 0.05383578 -0.038712587
0.036079388 -0.14466062 0.032567035 0.021095721 -0.022936257 -0.04855997 0.09297573 0.08413943
0.0151628675 -0.11339568 -0.029488169 -0.051130984 -0.12120485 -0.09751803 0.10887806 -0.032695364
0.1015663 -0.07544407 0.121485 -0.027890196 0.13861856 -0.11991383 -0.108570546 -0.059322033
-0.0010001382 0.08060007 -0.021192158 0.06348787 -0.06738205 -0.16653393 -0.002375824 -0.07449647
-0.12585896 -0.024279444 -0.07700222 0.03296325 -0.01802909 -0.13225642 0.0846238 0.013548571
-0.024782632 -0.009726314 0.07020617 -0.0027942187 0.0950719 -0.1308986 -0.03623907 0.08014665
-0.08698122 -0.07830829 -0.010591691 -0.106906444 -0.05466446 -0.06798304 0.09474894 0.021783108
-0.007820955 -0.08652272 0.06337989 0.026976679 -0.064911485 0.07137621 -0.08120095 -0.06730321
0.04962188 -0.1258731 -0.10261631 0.05284222 0.020089401 0.03211948 0.057233065 0.100659266
0.13440724 -0.0773472 -0.08190818 0.07655142 0.06750727 0.007207507 0.08935957 -0.029929526
0.09813283 0.0022406594 -0.017498398 -0.044852532 -0.045442015 -0.08968405 -0.0068824505 -0.022650689
-0.04839186 0.06510617 -0.059117526 0.146852 0.13437837 0.010650008 0.004252066 -0.03680922
0.050372068 -0.14939517 -0.058018997 0.09066757 -0.09034828 0.0065906188 0.047436006 0.06158557
0.073467515 0.016836392 0.022713095 -0.04337028 0.13032757 0.012275077 0.01642596 0.047336083
0.022669392 -0.063646 -0.11210232 0.019602718 -0.0039515905 0.09685107 0.004569084 0.13230306
-0.14231917 0.016898653 -0.09552341 -0.031215211 0.027814632 0.0091183875 -0.055457074 -0.12209511
0.024176959 0.053841494 -0.017259425 -0.012126152 -0.14418061 0.093408674 0.099161364 -0.07969461
0.02218524 0.06336943 -0.12758419 -0.0632123 -0.097851284 0.08077192 0.087579735 0.080498084
-0.103205495 0.010153547 -0.07335597 -0.07147166 -0.082624204 -0.14756572 0.106039524 0.021662539
0.021362266 0.12488223 0.09995722 -0.08447934 0.005920455 -0.14527535 0.02436145 -0.13888514
-0.017488591 0.008972034 -0.05732748 -0.12569542 -0.013861057 0.08199367 -0.0069136173 0.012995807
-0.09672203 -0.014566689 -0.07375827 0.028236171 -0.10971719 0.018036848 -0.120813616 0.04606585
-0.019957362 -0.08370049 -0.0512519 0.03100206 0.090877615 -0.097019926 0.046127293 0.1073244
0.0070674564 0.04525062 0.0065097027 0.07303051 0.06310764 0.08474951 -0.110888034 -0.069087945
-0.051821847 -0.2263161 0.121800415 0.0038123587 0.029604852 0.04987839 -0.08797157 0.008660954
-0.03174576 -0.21072099 0.0695145 -0.101744205 -0.021830501 -0.099537835 -0.0149527835 0.14899178
00000000: 51d1 97bd bebd b0bc 380b 053e 0cdb cd3d
00000010: 3b98 fcbc acdb c8bd 50d4 6e3c 9d96 e1bc
00000020: e1e4 a1bd 2889 6b3d f795 b03b f6bb 34bd
00000030: 18c6 0cbd 4bb9 06be bd16 4c3d 9e78 0abe
00000040: 55e6 a3bd 8a71 3abe 12fe a33d 25e1 1b3c
00000050: ea36 e6bd 77fa c3bd 368c 2f3d e839 f43d
00000060: ee03 4c3a f0a3 a1bd b249 c7bc 8181 9ebd
00000070: 8152 6dbd ddfe 0fbe 8118 ce3d 0c12 1fbd
00000080: f6c3 d73c 87a1 b43d 8806 9cbd eb00 6b3d
00000090: 69f3 ec3c 2328 a6bd e8a7 bcbd 285d 07bd
000000a0: b78b f2bd 7343 993d 95ac 31bd aa50 c83d
000000b0: 1fce 8f3c 2981 d6bd e882 5c3d 1791 1ebd
000000c0: fbc7 133d ea21 14be 0365 053d efd0 ac3c
000000d0: d1e4 bbbc d2e6 46bd 0f6a be3d 4b51 ac3d
000000e0: ad6d 783c ff3b e8bd 2c91 f1bc b96e 51bd
000000f0: 403a f8bd 88b7 c7bd 76fb de3d 93eb 05bd
00000100: fe01 d03d 6c82 9abd 21cd f83d fb79 e4bc
00000110: 06f2 0d3e 6295 f5bd 3c5a debd a9fb 72bd
00000120: 1217 83ba a611 a53d 2d9b adbc ee05 823d
00000130: 9aff 89bd df87 2abe b6b3 1bbb 9b91 98bd
00000140: 2ce1 00be afe5 c6bc 57b3 9dbd 7904 073d
00000150: beb1 93bc 3a6e 07be 3e4f ad3d d3fa 5d3c
00000160: f204 cbbc 1e5b 1fbc 41c8 8f3d 361f 37bb
00000170: 0eb5 c23d 480a 06be 6b6f 14bd ed23 a43d
00000180: 3623 b2bd 1960 a0bd c688 2dbc c4f1 dabd
00000190: d7e7 5fbd b13a 8bbd bb0b c23d 7d72 b23c
000001a0: 7623 00bc d332 b1bd 51cd 813d 32fe dc3c
000001b0: 50f0 84bd b12d 923d af4c a6bd 44d6 89bd
000001c0: 5040 4b3d e1e4 00be 8028 d2bd 1571 583d
000001d0: 8792 a43c b78f 033d 386d 6a3d 7226 ce3d
000001e0: 0da2 093e 3568 9ebd 7abf a7bd fec6 9c3d
000001f0: 4041 8a3d f32c ec3b 2602 b73d c42e f5bc
00000200: ddf9 c83d 07d8 123b cd58 8fbc 4ab7 37bd
00000210: 6821 3abd 45ac b7bd 2e86 e1bb f08d b9bc
00000220: 8b36 46bd 6256 853d 3825 72bd 5f60 163e
00000230: 7c9a 093e 5f7d 2e3c ea54 8b3b 44c5 16bd
00000240: f152 4e3d 0cfb 18be 54a5 6dbd ebaf b93d
00000250: 8508 b9bd 1ef6 d73b 424c 423d 2741 7c3d
00000260: 2376 963d 79ec 893c d010 ba3c 09a5 31bd
00000270: 9774 053e 681d 493c bc8f 863c 7be3 413d
00000280: 29b5 b93c d658 82bd e795 e5bd e195 a03c
00000290: 587c 81bb db59 c63d 41b8 953b 747a 073e
000002a0: 1ebc 11be 0b6f 8a3c c7a1 c3bd 0bb7 ffbc
000002b0: 83db e33c 4a65 153c f526 63bd 000d fabd
000002c0: c20e c63c e688 5c3d a363 8dbc c5ac 46bc
000002d0: 15a4 13be 0c4d bf3d 1d15 cb3d ed36 a3bd
000002e0: d2bd b53c d5c7 813d 6ea5 02be 7375 81bd
000002f0: 4166 c8bd c06b a53d 015d b33d 2edc a43d
00000300: 675d d3bd 105b 263c a83b 96bd bc5f 92bd
00000310: e136 a9bd 781b 17be 402b d93d a375 b13c
00000320: ebff ae3c 41c2 ff3d 5fb6 cc3d 8103 adbd
00000330: 6000 c23b 10c3 14be aa91 c73c e837 0ebe
00000340: 3c44 8fbc 70ff 123c 38d0 6abd 4db6 00be
00000350: 7d19 63bc 4cec a73d a08b e2bb 5eec 543c
00000360: 3316 c6bd 1fa9 6ebc 930e 97bd 8b4f e73c
00000370: 68b3 e0bd 03c2 933c 216d f7bd 8baf 3c3d
00000380: 9f7d a3bc 2a6b abbd 83ed 51bd 08f8 fd3c
00000390: 0b1e ba3d 62b2 c6bd f9ef 3c3d e5cc db3d
000003a0: 1f96 e73b b758 393d 584f d53b 0591 953d
000003b0: 943e 813d 2791 ad3d 4419 e3bd fb7d 8dbd
000003c0: 2543 54bd 68bf 67be 7f72 f93d c4d8 793b
000003d0: e085 f23c 484d 4c3d 702a b4bd ade6 0d3c
000003e0: d807 02bd 3ec7 57be 9e5d 8e3d 445f d0bd
000003f0: e1d5 b2bc 7eda cbbd 85fc 74bc 4d91 183e

lstm.weight_hh_l1 f4 [256, 64]
0.049167674 -0.0021993911 0.0415271 0.033182412 -0.064988516 -0.026564388 0.061058883 -0.080306515
0.0032335545 0.012769447 0.07123773 -0.0620961 0.012914579 0.08287507 0.049006652 0.119498566
-0.008588338 -0.0009523044 0.08794291 0.15671441 0.114673965 -0.14423922 -0.01291442 0.008075354
0.0073359273 0.14577904 -0.10914646 -0.011155743 -0.024922645 -0.12529953 -0.07837539 0.10968376
0.051423714 0.066039205 -0.14358552 -0.09142463 -0.015766498 0.072893545 -0.10249344 0.056551747
-0.037592173 -0.10945968 -0.03267294 -0.08793951 -0.034401346 -0.012996463 -0.08102148 0.043139573
0.051570795 -0.0932646 0.007957916 -0.08723314 -0.13824227 -0.05107404 -0.059641987 -0.07962567
0.14405169 0.08989015 0.07448254 0.11507436 -0.07912212 -0.01880408 0.08987289 0.072578326
0.05142173 0.098025836 -0.033381544 0.019059299 0.07315679 0.09710368 -0.12982555 -0.006369619
0.17600961 -0.12408684 -0.073309965 -0.08275143 0.09384873 -0.0253025 0.08643003 0.035875417
-0.0009259416 0.030680628 0.06771532 -0.07444341 -0.025813056 0.10613264 0.08992223 -0.0082576675
-0.11560043 -0.073242486 -0.083657175 -0.009924471 -0.024996402 0.09604073 0.056907035 -0.01564106
0.05588723 -0.121673256 -0.1253256 -0.06795638 -0.06533297 4.4281333e-05 -0.0986586 0.023260556
-0.012119232 -0.10545958 0.07678487 -0.025208673 0.016007844 0.14172372 -0.082801595 0.059612643
-0.019965066 -0.13609172 -0.07686832 0.05699802 0.09445223 0.030176917 -0.0065829097 0.0022997844
0.024549263 0.10718197 -0.03443573 -0.042345643 -0.08944966 0.064790174 -0.098787636 -0.06223874
0.07008092 0.10798756 -0.03798723 0.0012251335 -0.07318549 0.05347806 -0.043530196 -0.03144447
0.13053115 0.026053218 -0.042775467 -0.041103885 0.08516425 0.06406906 0.121508054 0.05080974
-0.09428035 -0.07155914 -0.07040501 -0.06440161 0.012283538 0.0452454 -0.048023105 -0.037861507
0.09120313 0.108219884 -0.02815894 0.0081251245 -0.11022868 0.061429758 0.12932438 0.071288124
0.039538506 -0.037265863 -0.13129665 0.08229341 0.025203694 0.01678815 0.028951092 -0.11688068
0.033092864 -0.04854805 -0.072003745 0.04880851 -0.010748409 0.040234152 0.031515244 0.08051167
-0.07885697 -0.01548995 0.049166657 0.064284004 0.010771795 0.1039015 -0.11151695 -0.004749384
-0.11314727 0.05622606 -0.075715356 0.032747462 0.034477767 -0.060019586 0.010284738 0.08493515
-0.065617286 -0.031842258 0.081619725 -0.035638314 0.1126048 -0.0045304224 -0.02740605 0.023742402
0.08409615 0.029377034 -0.032443676 -0.0282669 -0.07743794 0.067319594 0.07894386 0.012334351
0.07880365 -0.04171424 0.0039622416 -0.069625214 0.06265616 0.0021492613 -0.13329677 0.10479243
-0.07364375 -0.11233268 0.07978941 0.07038392 0.046836283 -0.116846696 0.1280216 0.042067014
-0.012723242 -0.020923834 -0.105153464 0.07343729 0.030533362 0.004353479 -0.1065135 0.014341133
0.054794677 0.032242447 0.047614016 -0.013353721 0.052060694 0.13382806 -0.086452276 -0.1374897
-0.002743578 -0.006343072 0.05669616 -0.04153574 -0.10065112 -0.08684904 -0.027526753 -0.07842018
0.12697373 -0.048875656 0.06841887 -0.014099921 0.051724583 -0.034885254 0.07446049 -0.08404518
00000000: 0b64 493d a923 10bb 5218 2a3d 48ea 073d
00000010: b318 85bd 8f9d d9bc e118 7a3d be77 a4bd
00000020: 0bea 533b f136 513c 16e5 913d 7b58 7ebd
00000030: ac97 533c 68ba a93d 33bb 483d aabb f43d
00000040: 1ab6 0cbc 11a4 79ba 6a1b b43d be79 203e
00000050: 2fda ea3d 72b3 13be 0197 53bc 7d4e 043c
00000060: 3862 f03b 1a47 153e 2e88 dfbd 94c6 36bc
00000070: 932a ccbc 854e 00be 4783 a0bd e1a1 e03d
00000080: aca1 523d 903f 873d 1508 13be d63c bbbd
00000090: be28 81bc 3649 953d 15e8 d1bd cea2 673d
000000a0: 40fa 19bd 662c e0bd 10d4 05bd a119 b4bd
000000b0: 6de8 0cbd 1eef 54bc 97ee a5bd 1fb3 303d
000000c0: e63b 533d 8301 bfbd eb61 023c 4aa7 b2bd
000000d0: 628f 0dbe 0333 51bd 284b 74bd c912 a3bd
000000e0: 4982 133e 5418 b83d 4d8a 983d 1bac eb3d
000000f0: c70a a2bd 040b 9abc 470f b83d f2a3 943d
00000100: 989f 523d c5c1 c83d 16bb 08bd 3f22 9c3c
00000110: 3ad3 953d 4bde c63d fdf0 04be 3db8 d0bb
00000120: dd3b 343e 3e21 febd 8923 96bd 9579 a9bd
00000130: c333 c03d 3047 cfbc 3a02 b13d 1af2 123d
00000140: e4ba 72ba f155 fb3c 54ae 8a3d c975 98bd
00000150: e775 d3bc 125c d93d 2529 b83d 2b4b 07bc
00000160: ebbf ecbd 2800 96bd 7454 abbd 409a 22bc
00000170: 41c5 ccbc 01b1 c43d 5a17 693d ae21 80bc
00000180: 02ea 643d d42f f9bd 5b55 00be b72c 8bbd
00000190: 4bcd 85bd b8ba 3938 850d cabd ec8c be3c
000001a0: be8f 46bc 31fb d7bd 6341 9d3d 6b82 cebc
000001b0: e222 833c 0620 113e e293 a9bd 632c 743d
000001c0: c78d a3bc a15b 0bbe 236d 9dbd c176 693d
000001d0: 2c70 c13d 9535 f73c 73b5 d7bb fbb7 163b
000001e0: 891b c93c 3882 db3d 7b0c 0dbd a072 2dbd
000001f0: 6231 b7bd b6b0 843d 2c51 cabd 0dee 7ebd
00000200: 9686 8f3d 9528 dd3d 7f98 1bbd a994 a03a
00000210: 46e2 95bd cf0b 5b3d b84c 32bd ebcb 00bd
00000220: f5a9 053e 8f6d d53c 5435 2fbd 8c5c 28bd
00000230: 986a ae3d a436 833d 37d9 f83d e01d 503d
00000240: 0e16 c1bd 998d 92bd 8030 90bd fee4 83bd
00000250: e440 493c 3e53 393d e0b3 44bd ab14 1bbd
00000260: b5c8 ba3d 63a2 dd3d 94ad e6bc 3e1f 053c
00000270: 93bf e1bd c59d 7b3d 9c6d 043e 82ff 913d
00000280: 21f3 213d 17a4 18bd a172 06be 7389 a83d
00000290: fa77 ce3c 4d87 893c d72a ed3c 235f efbd
000002a0: 628c 073d 52da 46bd b376 93bd 6feb 473d
000002b0: 181a 30bc 91cc 243d 2116 013d 4de3 a43d
000002c0: c37f a1bd 8fc9 7dbc fa62 493d 55a7 833d
000002d0: 2f7c 303c 4fca d43d 0063 e4bd b8a0 9bbb
000002e0: c2b9 e7bd 4c4d 663d a710 9bbd 3422 063d
000002f0: 8f38 0d3d 19d7 75bd 5181 283c 7bf2 ad3d
00000300: 5b62 86bd 076d 02bd 3e28 a73d 7bf9 11bd
00000310: 589d e63d f073 94bb a782 e0bc 6d7f c23c
00000320: 9a3a ac3d 1ba8 f03c a9e3 04bd fc8f e7bc
00000330: c897 9ebd dbde 893d 52ad a13d 0516 4a3c
00000340: cf63 a13d 8ddc 2abd b1d5 813b aa97 8ebd
00000350: df51 803d 9fda 0c3b f37e 08be 6a9d d63d
00000360: 89d2 96bd ad0e e6bd a168 a33d 7225 903d
00000370: 67d7 3f3d 524d efbd 1818 033e 764e 2c3d
00000380: 2575 50bc 7668 abbc b35a d7bd 4a66 963d
00000390: 1a21 fa3c a1a7 8e3b c023 dabd 12f7 6a3c
000003a0: 6270 603d a810 043d ea06 433d 91c9 5abc
000003b0: 983d 553d 390a 093e e40d b1bd 1aca 0cbe
000003c0: 9acd 33bb 8bd9 cfbb 3c3a 683d 6121 2abd
000003d0: 2d22 cebd e9dd b1bd c97f e1bc c29a a0bd
000003e0: 6705 023e d731 48bd 311f 8c3d 5b03 67bc
000003f0: 28dd 533d d7e3 0ebd be7e 983d e11f acbd

lstm.bias_ih_l1 f4 [256]
0.06880735 0.054476794 -0.037028644 0.10163696 -0.08752623 0.03177767 -0.01960953 -0.07497225
-0.13798754 -0.11113969 -0.034121677 0.095079504 -0.033605855 0.0037587523 0.03695882 0.110236034
-0.114285976 0.25495374 -0.07600854 -0.09964598 -0.03569594 -0.021533433 0.07108802 -0.05653956
-0.07340769 0.052804157 0.011264771 0.04853593 -0.06985235 0.021199994 0.05386434 0.09387915
-0.017910328 -0.1258047 -0.109169535 -0.0077692056 0.07950188 0.05896855 -0.010140169 -0.0745522
-0.033066295 0.0624476 0.10023159 -0.095811844 0.08768294 -0.027409254 -0.033776518 0.10426846
0.066747755 0.07285593 0.017468698 0.056865457 0.0342604 -0.09288863 -0.030524697 0.031250115
0.07279608 -0.008939181 0.012179827 -0.06400864 0.06019062 0.02549822 -0.041154854 -0.06919065
-0.13596301 -0.100806974 -0.013465542 -0.11676824 0.021190198 0.076301426 -0.1488604 -0.096131206
-0.009323553 -0.07991438 0.0059219915 0.038298644 -0.080950215 -0.110935174 -0.028016903 -0.04931616
-0.042433463 0.22588155 0.072461456 -0.107395835 -0.018774416 -0.0341382 -0.110698655 -0.033065952
-0.1389725 -0.025073739 -0.09887535 0.092361055 -0.09959542 0.0054704775 -0.14758559 -0.07977901
0.016438644 -0.03985269 -0.0013222785 -0.103178434 0.09165997 -0.053781535 -0.09888495 0.092244424
-0.0124067115 -0.029854912 -0.10318221 -0.043384224 -0.09861165 0.022916362 0.05530779 -0.013893352
0.0032855743 0.036910154 -0.083181985 -0.16766621 -0.14664054 0.13294956 -0.13013998 0.022369394
0.08650927 0.013971396 -0.124187775 -0.087837934 0.044726707 -0.11810885 0.05156725 -0.058535125
-0.09477022 -0.05257897 0.10170994 -0.02009641 -0.025501553 -0.05921902 0.059155177 -0.08383079
-0.053691417 0.066125296 -0.0064019207 0.035191108 -0.0787235 0.08402956 -0.052356664 0.041068457
0.028119402 -0.05307749 -0.081097215 -0.058843303 0.04431328 0.07229018 0.04154583 -0.06714558
-0.06582683 -0.0036304349 0.07773883 -0.014148898 -0.013781791 -0.07776493 -0.053073484 0.035843294
-0.079785064 0.03275135 -0.0747208 -0.07705415 0.083959475 0.035765126 -0.07361054 -0.08496264
0.075481266 0.014856949 0.026889628 -0.06622354 -0.059603848 0.038908042 0.037561346 0.054287314
0.045144774 -0.0063946233 0.0033206004 -0.024487868 -0.035460025 -0.07287156 -0.07242872 0.0716846
-0.07158664 0.07372422 0.07238151 -0.109351985 0.031960383 -0.023119045 -0.034118235 0.010199723
-0.024157127 -0.077728294 0.10905961 0.074303046 0.095035195 -0.03834213 0.007994094 -0.06666065
-0.009991887 0.07839691 -0.11095882 0.10756482 -0.02079406 -0.1038193 0.07834585 -0.016339598
0.06576488 0.059102923 -0.028626412 0.05525086 0.009307506 0.09678909 0.11424138 0.06486368
-0.11213427 0.044151034 0.04846271 0.078468874 0.08099056 -0.012334119 -0.033670414 -0.006958974
-0.039409526 -0.07052626 0.06804691 -0.084211454 -0.06882937 -0.054975342 -0.073176056 -0.06568588
0.020960685 0.10955798 -0.05910582 -0.1358581 0.015399826 -0.16828516 -0.02029487 -0.038537394
0.0639083 -0.05245851 -0.017747035 -0.16117623 -0.015293096 -0.10789872 -0.114454076 0.06784422
0.073722005 0.08795786 -0.01384824 -0.06270416 -0.07041744 -0.009579143 -0.12593396 -0.12157587
00000000: deea 8c3d 0f23 5f3d 59ab 17bd 0a27 d03d
00000010: f440 b3bd 4d29 023d 2aa4 a0bc 0d8b 99bd
00000020: 9b4c 0dbe 359d e3bd 2cc3 0bbd 0bb9 c23d
00000030: 4ba6 09bd 6655 763b 2262 173d 6ec3 e13d
00000040: c40e eabd 4c89 823e 5eaa 9bbd 3113 ccbd
00000050: e835 12bd e266 b0bc 9996 913d 0796 67bd
00000060: c556 96bd 2c49 583d e08f 383c 9dcd 463d
00000070: c00e 8fbd 9cab ad3c dba0 5c3d b643 c03d
00000080: aeb8 92bc f3d2 00be 4794 dfbd d294 febb
00000090: e2d1 a23d 0289 713d f422 26bc d3ae 98bd
000000a0: 8670 07bd 0ec9 7f3d 3846 cd3d 0039 c4bd
000000b0: 1d93 b33d 5f89 e0bc 3f59 0abd b48a d53d
000000c0: 0cb3 883d 7d35 953d 841a 8f3c c1eb 683d
000000d0: a254 0c3d 653c bebd ee0e fabc 1f00 003d
000000e0: 1c16 953d a575 12bc e68d 473c f616 83bd
000000f0: 718a 763d a5e1 d03c fe91 28bd d4b3 8dbd
00000100: e339 0bbe e373 cebd 949e 5cbc 3024 efbd
00000110: 1197 ad3c ec43 9c3d dc6e 18be 70e0 c4bd
00000120: d1c1 18bc 27aa a3bd 440d c23b 0adf 1c3d
00000130: 3ac9 a5bd fb31 e3bd b483 e5bc beff 49bd
00000140: b6ce 2dbd 7e4d 673e ac66 943d 59f2 dbbd
00000150: cecc 99bc 7fd4 0bbd fab5 e2bd 2a70 07bd
00000160: cf4e 0ebe 7167 cdbc 297f cabd cb27 bd3d
00000170: aff8 cbbd b141 b33b ad20 17be 2d63 a3bd
00000180: 56aa 863c 933c 23bd 4e50 adba 374f d3bd
00000190: 39b8 bb3d 074a 5cbd 3184 cabd a5ea bc3d
000001a0: 8545 4bbc 4a92 f4bc 3251 d3bd a8b3 31bd
000001b0: e8f4 c9bd 18bb bb3c 6c8a 623d f1a0 63bc
000001c0: ca52 573b 1a2f 173d 515b aabd b1b0 2bbe
000001d0: f028 16be ee23 083e 6a43 05be 0540 b73c
000001e0: c62b b13d 48e8 643c 2956 febd 60e4 b3bd
000001f0: 5a33 373d 0ee3 f1bd 2e38 533d 87c2 6fbd
00000200: e416 c2bd 0c5d 57bd 4d4d d03d 3aa1 a4bc
00000210: a2e8 d0bc a58f 72bd b34c 723d 7aaf abbd
00000220: 88eb 5bbd b36c 873d 34c7 d1bb 8d24 103d
00000230: c939 a1bd b117 ac3d f173 56bd 6637 283d
00000240: a95a e63c c867 59bd 4c16 a6bd ad05 71bd
00000250: d881 353d e00c 943d f62b 2a3d 9f83 89bd
00000260: 38d0 86bd 97ec 6dbb 8935 9f3d c8d0 67bc
00000270: 05cd 61bc 3843 9fbd 9563 59bd 6bd0 123d
00000280: 5a66 a3bd 4826 063d 3807 99bd 91ce 9dbd
00000290: f2f2 ab3d 747e 123d 1fc1 96bd e500 aebd
000002a0: ec95 9a3d 906a 733c a347 dc3c 35a0 87bd
000002b0: 2a23 74bd 0a5e 1f3d edd9 193d 605c 5e3d
000002c0: bae9 383d fd89 d1bb 6e9e 593b c89a c8bc
000002d0: 883e 11bd af3d 95bd 8255 94bd 60cf 923d
000002e0: 049c 92bd b9fc 963d c23c 943d eff3 dfbd
000002f0: e4e8 023d 2764 bdbc 90bf 0bbd bd1c 273c
00000300: 2be5 c5bc 0330 9fbd a55a df3d 322c 983d
00000310: d0a1 c23d a30c 1dbd a9f9 023c 6185 88bd
00000320: 03b5 23bc 8f8e a03d 613e e3bd f24a dc3d
00000330: 4e58 aabc 379f d4bd ca73 a03d 9fda 85bc
00000340: bdaf 863d e815 723d f081 eabc ba4e 623d
00000350: 827e 183c 5c39 c63d 62f7 e93d 40d7 843d
00000360: a7a6 e5bd b7d7 343d d680 463d 4ab4 a03d
00000370: 61de a53d 0b15 4abc fde9 09bd 1b08 e4bb
00000380: e26b 21bd 1270 90bd 2e5c 8b3d 0e77 acbd
00000390: 6af6 8cbd d32d 61bd 54dd 95bd 5286 86bd
000003a0: beb5 ab3c ef5f e03d f218 72bd 631e 0bbe
000003b0: 8d4f 7c3c f252 2cbe 6d41 a6bc 63d9 1dbd
000003c0: 5be2 823d bcde 56bd 3b62 91bc 620b 25be
000003d0: e58f 7abc 01fa dcbd e666 eabd e9f1 8a3d
000003e0: 90fb 963d 4023 b43d bae3 62bc 0a6b 80bd
000003f0: 0537 90bd d6f1 1cbc d5f4 00be c5fc f8bd
